…
Requirement already satisfied: nvidia-nvjitlink-cu12==12.4.127 in /users/kdm/juliuszl/.local/lib/python3.11/site-packages (from torch==2.5.1->-r requirements.txt (line 38)) (12.4.127)
Requirement already satisfied: triton==3.1.0 in /users/kdm/juliuszl/.local/lib/python3.11/site-packages (from torch==2.5.1->-r requirements.txt (line 38)) (3.1.0)

[notice] A new release of pip is available: 23.2.1 -> 24.3.1
[notice] To update, run: pip3 install --upgrade pip
Size of image: (128, 128, 3)
Batch size: 64
Number of epochs: 100
Latent dimension: 100
Learning rate: 0.0002
Beta: 0.5
==========AE==========
N: 499, Autoencoder(
  (encoder): Encoder(
    (conv2d_01): Conv2d(3, 64, kernel_size=(3, 3), stride=(2, 2), padding=(1, 1))
    (relu_01): ReLU()
    (conv2d_02): Conv2d(64, 128, kernel_size=(3, 3), stride=(2, 2), padding=(1, 1))
    (relu_02): ReLU()
    (conv2d_03): Conv2d(128, 256, kernel_size=(3, 3), stride=(2, 2), padding=(1, 1))
    (relu_03): ReLU()
    (flatten_04): Flatten(start_dim=1, end_dim=-1)
    (linear_04): Linear(in_features=65536, out_features=1024, bias=True)
    (relu_04): ReLU()
  )
  (decoder): Decoder(
    (linear_01): Linear(in_features=1024, out_features=65536, bias=True)
    (relu_01): ReLU()
    (unflatten_01): Unflatten(dim=1, unflattened_size=(256, 16, 16))
    (conv_transpose2d_02): ConvTranspose2d(256, 128, kernel_size=(3, 3), stride=(2, 2), padding=(1, 1), output_padding=(1, 1))
    (relu_02): ReLU()
    (conv_transpose2d_03): ConvTranspose2d(128, 64, kernel_size=(3, 3), stride=(2, 2), padding=(1, 1), output_padding=(1, 1))
    (relu_03): ReLU()
    (conv_transpose2d_04): ConvTranspose2d(64, 3, kernel_size=(3, 3), stride=(2, 2), padding=(1, 1), output_padding=(1, 1))
    (tanh_04): Tanh()
  )
)
Epoch [1/100], Loss: 0.6018
Epoch [2/100], Loss: 0.3780
Epoch [3/100], Loss: 0.2249
Epoch [4/100], Loss: 0.1553
Epoch [5/100], Loss: 0.1224
Epoch [6/100], Loss: 0.1023
Epoch [7/100], Loss: 0.0873
Epoch [8/100], Loss: 0.0755
Epoch [9/100], Loss: 0.0653
Epoch [10/100], Loss: 0.0568
Epoch [11/100], Loss: 0.0490
…
Epoch [84/100], Loss: 0.0047
Epoch [85/100], Loss: 0.0046
Epoch [86/100], Loss: 0.0045
Epoch [87/100], Loss: 0.0044
Epoch [88/100], Loss: 0.0044
Epoch [89/100], Loss: 0.0043
Epoch [90/100], Loss: 0.0043
Epoch [91/100], Loss: 0.0043
Epoch [92/100], Loss: 0.0043
Epoch [93/100], Loss: 0.0042
Epoch [94/100], Loss: 0.0041
Epoch [95/100], Loss: 0.0041
Epoch [96/100], Loss: 0.0040
Epoch [97/100], Loss: 0.0040
Epoch [98/100], Loss: 0.0039
Epoch [99/100], Loss: 0.0040
Epoch [100/100], Loss: 0.0039
======================
==========AE==========
{'N': (499, Autoencoder(
  (encoder): Encoder(
    (conv2d_01): Conv2d(3, 64, kernel_size=(3, 3), stride=(2, 2), padding=(1, 1))
    (relu_01): ReLU()
    (conv2d_02): Conv2d(64, 128, kernel_size=(3, 3), stride=(2, 2), padding=(1, 1))
    (relu_02): ReLU()
    (conv2d_03): Conv2d(128, 256, kernel_size=(3, 3), stride=(2, 2), padding=(1, 1))
    (relu_03): ReLU()
    (flatten_04): Flatten(start_dim=1, end_dim=-1)
    (linear_04): Linear(in_features=65536, out_features=1024, bias=True)
    (relu_04): ReLU()
  )
  (decoder): Decoder(
    (linear_01): Linear(in_features=1024, out_features=65536, bias=True)
    (relu_01): ReLU()
    (unflatten_01): Unflatten(dim=1, unflattened_size=(256, 16, 16))
    (conv_transpose2d_02): ConvTranspose2d(256, 128, kernel_size=(3, 3), stride=(2, 2), padding=(1, 1), output_padding=(1, 1))
    (relu_02): ReLU()
    (conv_transpose2d_03): ConvTranspose2d(128, 64, kernel_size=(3, 3), stride=(2, 2), padding=(1, 1), output_padding=(1, 1))
    (relu_03): ReLU()
    (conv_transpose2d_04): ConvTranspose2d(64, 3, kernel_size=(3, 3), stride=(2, 2), padding=(1, 1), output_padding=(1, 1))
    (tanh_04): Tanh()
  )
)), 'B': (500, Autoencoder(
  (encoder): Encoder(
    (conv2d_01): Conv2d(3, 64, kernel_size=(3, 3), stride=(2, 2), padding=(1, 1))
    (relu_01): ReLU()
    (conv2d_02): Conv2d(64, 128, kernel_size=(3, 3), stride=(2, 2), padding=(1, 1))
    (relu_02): ReLU()
    (conv2d_03): Conv2d(128, 256, kernel_size=(3, 3), stride=(2, 2), padding=(1, 1))
    (relu_03): ReLU()
    (flatten_04): Flatten(start_dim=1, end_dim=-1)
    (linear_04): Linear(in_features=65536, out_features=1024, bias=True)
    (relu_04): ReLU()
  )
  (decoder): Decoder(
    (linear_01): Linear(in_features=1024, out_features=65536, bias=True)
    (relu_01): ReLU()
    (unflatten_01): Unflatten(dim=1, unflattened_size=(256, 16, 16))
    (conv_transpose2d_02): ConvTranspose2d(256, 128, kernel_size=(3, 3), stride=(2, 2), padding=(1, 1), output_padding=(1, 1))
    (relu_02): ReLU()
    (conv_transpose2d_03): ConvTranspose2d(128, 64, kernel_size=(3, 3), stride=(2, 2), padding=(1, 1), output_padding=(1, 1))
    (relu_03): ReLU()
    (conv_transpose2d_04): ConvTranspose2d(64, 3, kernel_size=(3, 3), stride=(2, 2), padding=(1, 1), output_padding=(1, 1))
    (tanh_04): Tanh()
  )
)), 'P': (500, Autoencoder(
  (encoder): Encoder(
    (conv2d_01): Conv2d(3, 64, kernel_size=(3, 3), stride=(2, 2), padding=(1, 1))
    (relu_01): ReLU()
    (conv2d_02): Conv2d(64, 128, kernel_size=(3, 3), stride=(2, 2), padding=(1, 1))
    (relu_02): ReLU()
    (conv2d_03): Conv2d(128, 256, kernel_size=(3, 3), stride=(2, 2), padding=(1, 1))
    (relu_03): ReLU()
    (flatten_04): Flatten(start_dim=1, end_dim=-1)
    (linear_04): Linear(in_features=65536, out_features=1024, bias=True)
    (relu_04): ReLU()
  )
  (decoder): Decoder(
    (linear_01): Linear(in_features=1024, out_features=65536, bias=True)
    (relu_01): ReLU()
    (unflatten_01): Unflatten(dim=1, unflattened_size=(256, 16, 16))
    (conv_transpose2d_02): ConvTranspose2d(256, 128, kernel_size=(3, 3), stride=(2, 2), padding=(1, 1), output_padding=(1, 1))
    (relu_02): ReLU()
    (conv_transpose2d_03): ConvTranspose2d(128, 64, kernel_size=(3, 3), stride=(2, 2), padding=(1, 1), output_padding=(1, 1))
    (relu_03): ReLU()
    (conv_transpose2d_04): ConvTranspose2d(64, 3, kernel_size=(3, 3), stride=(2, 2), padding=(1, 1), output_padding=(1, 1))
    (tanh_04): Tanh()
  )
)), 'W': (499, Autoencoder(
  (encoder): Encoder(
    (conv2d_01): Conv2d(3, 64, kernel_size=(3, 3), stride=(2, 2), padding=(1, 1))
    (relu_01): ReLU()
    (conv2d_02): Conv2d(64, 128, kernel_size=(3, 3), stride=(2, 2), padding=(1, 1))
    (relu_02): ReLU()
    (conv2d_03): Conv2d(128, 256, kernel_size=(3, 3), stride=(2, 2), padding=(1, 1))
    (relu_03): ReLU()
    (flatten_04): Flatten(start_dim=1, end_dim=-1)
    (linear_04): Linear(in_features=65536, out_features=1024, bias=True)
    (relu_04): ReLU()
  )
  (decoder): Decoder(
    (linear_01): Linear(in_features=1024, out_features=65536, bias=True)
    (relu_01): ReLU()
    (unflatten_01): Unflatten(dim=1, unflattened_size=(256, 16, 16))
    (conv_transpose2d_02): ConvTranspose2d(256, 128, kernel_size=(3, 3), stride=(2, 2), padding=(1, 1), output_padding=(1, 1))
    (relu_02): ReLU()
    (conv_transpose2d_03): ConvTranspose2d(128, 64, kernel_size=(3, 3), stride=(2, 2), padding=(1, 1), output_padding=(1, 1))
    (relu_03): ReLU()
    (conv_transpose2d_04): ConvTranspose2d(64, 3, kernel_size=(3, 3), stride=(2, 2), padding=(1, 1), output_padding=(1, 1))
    (tanh_04): Tanh()
  )
)), 'X': (500, Autoencoder(
  (encoder): Encoder(
    (conv2d_01): Conv2d(3, 64, kernel_size=(3, 3), stride=(2, 2), padding=(1, 1))
    (relu_01): ReLU()
    (conv2d_02): Conv2d(64, 128, kernel_size=(3, 3), stride=(2, 2), padding=(1, 1))
    (relu_02): ReLU()
    (conv2d_03): Conv2d(128, 256, kernel_size=(3, 3), stride=(2, 2), padding=(1, 1))
    (relu_03): ReLU()
    (flatten_04): Flatten(start_dim=1, end_dim=-1)
    (linear_04): Linear(in_features=65536, out_features=1024, bias=True)
    (relu_04): ReLU()
  )
  (decoder): Decoder(
    (linear_01): Linear(in_features=1024, out_features=65536, bias=True)
    (relu_01): ReLU()
    (unflatten_01): Unflatten(dim=1, unflattened_size=(256, 16, 16))
    (conv_transpose2d_02): ConvTranspose2d(256, 128, kernel_size=(3, 3), stride=(2, 2), padding=(1, 1), output_padding=(1, 1))
    (relu_02): ReLU()
    (conv_transpose2d_03): ConvTranspose2d(128, 64, kernel_size=(3, 3), stride=(2, 2), padding=(1, 1), output_padding=(1, 1))
    (relu_03): ReLU()
    (conv_transpose2d_04): ConvTranspose2d(64, 3, kernel_size=(3, 3), stride=(2, 2), padding=(1, 1), output_padding=(1, 1))
    (tanh_04): Tanh()
  )
)), 'C': (500, Autoencoder(
  (encoder): Encoder(
    (conv2d_01): Conv2d(3, 64, kernel_size=(3, 3), stride=(2, 2), padding=(1, 1))
    (relu_01): ReLU()
    (conv2d_02): Conv2d(64, 128, kernel_size=(3, 3), stride=(2, 2), padding=(1, 1))
    (relu_02): ReLU()
    (conv2d_03): Conv2d(128, 256, kernel_size=(3, 3), stride=(2, 2), padding=(1, 1))
    (relu_03): ReLU()
    (flatten_04): Flatten(start_dim=1, end_dim=-1)
    (linear_04): Linear(in_features=65536, out_features=1024, bias=True)
    (relu_04): ReLU()
  )
  (decoder): Decoder(
    (linear_01): Linear(in_features=1024, out_features=65536, bias=True)
    (relu_01): ReLU()
    (unflatten_01): Unflatten(dim=1, unflattened_size=(256, 16, 16))
    (conv_transpose2d_02): ConvTranspose2d(256, 128, kernel_size=(3, 3), stride=(2, 2), padding=(1, 1), output_padding=(1, 1))
    (relu_02): ReLU()
    (conv_transpose2d_03): ConvTranspose2d(128, 64, kernel_size=(3, 3), stride=(2, 2), padding=(1, 1), output_padding=(1, 1))
    (relu_03): ReLU()
    (conv_transpose2d_04): ConvTranspose2d(64, 3, kernel_size=(3, 3), stride=(2, 2), padding=(1, 1), output_padding=(1, 1))
    (tanh_04): Tanh()
  )
)), 'M': (500, Autoencoder(
  (encoder): Encoder(
    (conv2d_01): Conv2d(3, 64, kernel_size=(3, 3), stride=(2, 2), padding=(1, 1))
    (relu_01): ReLU()
    (conv2d_02): Conv2d(64, 128, kernel_size=(3, 3), stride=(2, 2), padding=(1, 1))
    (relu_02): ReLU()
    (conv2d_03): Conv2d(128, 256, kernel_size=(3, 3), stride=(2, 2), padding=(1, 1))
    (relu_03): ReLU()
    (flatten_04): Flatten(start_dim=1, end_dim=-1)
    (linear_04): Linear(in_features=65536, out_features=1024, bias=True)
    (relu_04): ReLU()
  )
  (decoder): Decoder(
    (linear_01): Linear(in_features=1024, out_features=65536, bias=True)
    (relu_01): ReLU()
    (unflatten_01): Unflatten(dim=1, unflattened_size=(256, 16, 16))
    (conv_transpose2d_02): ConvTranspose2d(256, 128, kernel_size=(3, 3), stride=(2, 2), padding=(1, 1), output_padding=(1, 1))
    (relu_02): ReLU()
    (conv_transpose2d_03): ConvTranspose2d(128, 64, kernel_size=(3, 3), stride=(2, 2), padding=(1, 1), output_padding=(1, 1))
    (relu_03): ReLU()
    (conv_transpose2d_04): ConvTranspose2d(64, 3, kernel_size=(3, 3), stride=(2, 2), padding=(1, 1), output_padding=(1, 1))
    (tanh_04): Tanh()
  )
)), 'E': (500, Autoencoder(
  (encoder): Encoder(
    (conv2d_01): Conv2d(3, 64, kernel_size=(3, 3), stride=(2, 2), padding=(1, 1))
    (relu_01): ReLU()
    (conv2d_02): Conv2d(64, 128, kernel_size=(3, 3), stride=(2, 2), padding=(1, 1))
    (relu_02): ReLU()
    (conv2d_03): Conv2d(128, 256, kernel_size=(3, 3), stride=(2, 2), padding=(1, 1))
    (relu_03): ReLU()
    (flatten_04): Flatten(start_dim=1, end_dim=-1)
    (linear_04): Linear(in_features=65536, out_features=1024, bias=True)
    (relu_04): ReLU()
  )
  (decoder): Decoder(
    (linear_01): Linear(in_features=1024, out_features=65536, bias=True)
    (relu_01): ReLU()
    (unflatten_01): Unflatten(dim=1, unflattened_size=(256, 16, 16))
    (conv_transpose2d_02): ConvTranspose2d(256, 128, kernel_size=(3, 3), stride=(2, 2), padding=(1, 1), output_padding=(1, 1))
    (relu_02): ReLU()
    (conv_transpose2d_03): ConvTranspose2d(128, 64, kernel_size=(3, 3), stride=(2, 2), padding=(1, 1), output_padding=(1, 1))
    (relu_03): ReLU()
    (conv_transpose2d_04): ConvTranspose2d(64, 3, kernel_size=(3, 3), stride=(2, 2), padding=(1, 1), output_padding=(1, 1))
    (tanh_04): Tanh()
  )
)), 'G': (500, Autoencoder(
  (encoder): Encoder(
    (conv2d_01): Conv2d(3, 64, kernel_size=(3, 3), stride=(2, 2), padding=(1, 1))
    (relu_01): ReLU()
    (conv2d_02): Conv2d(64, 128, kernel_size=(3, 3), stride=(2, 2), padding=(1, 1))
    (relu_02): ReLU()
    (conv2d_03): Conv2d(128, 256, kernel_size=(3, 3), stride=(2, 2), padding=(1, 1))
    (relu_03): ReLU()
    (flatten_04): Flatten(start_dim=1, end_dim=-1)
    (linear_04): Linear(in_features=65536, out_features=1024, bias=True)
    (relu_04): ReLU()
  )
  (decoder): Decoder(
    (linear_01): Linear(in_features=1024, out_features=65536, bias=True)
    (relu_01): ReLU()
    (unflatten_01): Unflatten(dim=1, unflattened_size=(256, 16, 16))
    (conv_transpose2d_02): ConvTranspose2d(256, 128, kernel_size=(3, 3), stride=(2, 2), padding=(1, 1), output_padding=(1, 1))
    (relu_02): ReLU()
    (conv_transpose2d_03): ConvTranspose2d(128, 64, kernel_size=(3, 3), stride=(2, 2), padding=(1, 1), output_padding=(1, 1))
    (relu_03): ReLU()
    (conv_transpose2d_04): ConvTranspose2d(64, 3, kernel_size=(3, 3), stride=(2, 2), padding=(1, 1), output_padding=(1, 1))
    (tanh_04): Tanh()
  )
)), 'L': (500, Autoencoder(
  (encoder): Encoder(
    (conv2d_01): Conv2d(3, 64, kernel_size=(3, 3), stride=(2, 2), padding=(1, 1))
    (relu_01): ReLU()
    (conv2d_02): Conv2d(64, 128, kernel_size=(3, 3), stride=(2, 2), padding=(1, 1))
    (relu_02): ReLU()
    (conv2d_03): Conv2d(128, 256, kernel_size=(3, 3), stride=(2, 2), padding=(1, 1))
    (relu_03): ReLU()
    (flatten_04): Flatten(start_dim=1, end_dim=-1)
    (linear_04): Linear(in_features=65536, out_features=1024, bias=True)
    (relu_04): ReLU()
  )
  (decoder): Decoder(
    (linear_01): Linear(in_features=1024, out_features=65536, bias=True)
    (relu_01): ReLU()
    (unflatten_01): Unflatten(dim=1, unflattened_size=(256, 16, 16))
    (conv_transpose2d_02): ConvTranspose2d(256, 128, kernel_size=(3, 3), stride=(2, 2), padding=(1, 1), output_padding=(1, 1))
    (relu_02): ReLU()
    (conv_transpose2d_03): ConvTranspose2d(128, 64, kernel_size=(3, 3), stride=(2, 2), padding=(1, 1), output_padding=(1, 1))
    (relu_03): ReLU()
    (conv_transpose2d_04): ConvTranspose2d(64, 3, kernel_size=(3, 3), stride=(2, 2), padding=(1, 1), output_padding=(1, 1))
    (tanh_04): Tanh()
  )
)), 'D': (500, Autoencoder(
  (encoder): Encoder(
    (conv2d_01): Conv2d(3, 64, kernel_size=(3, 3), stride=(2, 2), padding=(1, 1))
    (relu_01): ReLU()
    (conv2d_02): Conv2d(64, 128, kernel_size=(3, 3), stride=(2, 2), padding=(1, 1))
    (relu_02): ReLU()
    (conv2d_03): Conv2d(128, 256, kernel_size=(3, 3), stride=(2, 2), padding=(1, 1))
    (relu_03): ReLU()
    (flatten_04): Flatten(start_dim=1, end_dim=-1)
    (linear_04): Linear(in_features=65536, out_features=1024, bias=True)
    (relu_04): ReLU()
  )
  (decoder): Decoder(
    (linear_01): Linear(in_features=1024, out_features=65536, bias=True)
    (relu_01): ReLU()
    (unflatten_01): Unflatten(dim=1, unflattened_size=(256, 16, 16))
    (conv_transpose2d_02): ConvTranspose2d(256, 128, kernel_size=(3, 3), stride=(2, 2), padding=(1, 1), output_padding=(1, 1))
    (relu_02): ReLU()
    (conv_transpose2d_03): ConvTranspose2d(128, 64, kernel_size=(3, 3), stride=(2, 2), padding=(1, 1), output_padding=(1, 1))
    (relu_03): ReLU()
    (conv_transpose2d_04): ConvTranspose2d(64, 3, kernel_size=(3, 3), stride=(2, 2), padding=(1, 1), output_padding=(1, 1))
    (tanh_04): Tanh()
  )
)), 'I': (500, Autoencoder(
  (encoder): Encoder(
    (conv2d_01): Conv2d(3, 64, kernel_size=(3, 3), stride=(2, 2), padding=(1, 1))
    (relu_01): ReLU()
    (conv2d_02): Conv2d(64, 128, kernel_size=(3, 3), stride=(2, 2), padding=(1, 1))
    (relu_02): ReLU()
    (conv2d_03): Conv2d(128, 256, kernel_size=(3, 3), stride=(2, 2), padding=(1, 1))
    (relu_03): ReLU()
    (flatten_04): Flatten(start_dim=1, end_dim=-1)
    (linear_04): Linear(in_features=65536, out_features=1024, bias=True)
    (relu_04): ReLU()
  )
  (decoder): Decoder(
    (linear_01): Linear(in_features=1024, out_features=65536, bias=True)
    (relu_01): ReLU()
    (unflatten_01): Unflatten(dim=1, unflattened_size=(256, 16, 16))
    (conv_transpose2d_02): ConvTranspose2d(256, 128, kernel_size=(3, 3), stride=(2, 2), padding=(1, 1), output_padding=(1, 1))
    (relu_02): ReLU()
    (conv_transpose2d_03): ConvTranspose2d(128, 64, kernel_size=(3, 3), stride=(2, 2), padding=(1, 1), output_padding=(1, 1))
    (relu_03): ReLU()
    (conv_transpose2d_04): ConvTranspose2d(64, 3, kernel_size=(3, 3), stride=(2, 2), padding=(1, 1), output_padding=(1, 1))
    (tanh_04): Tanh()
  )
)), 'Z': (500, Autoencoder(
  (encoder): Encoder(
    (conv2d_01): Conv2d(3, 64, kernel_size=(3, 3), stride=(2, 2), padding=(1, 1))
    (relu_01): ReLU()
    (conv2d_02): Conv2d(64, 128, kernel_size=(3, 3), stride=(2, 2), padding=(1, 1))
    (relu_02): ReLU()
    (conv2d_03): Conv2d(128, 256, kernel_size=(3, 3), stride=(2, 2), padding=(1, 1))
    (relu_03): ReLU()
    (flatten_04): Flatten(start_dim=1, end_dim=-1)
    (linear_04): Linear(in_features=65536, out_features=1024, bias=True)
    (relu_04): ReLU()
  )
  (decoder): Decoder(
    (linear_01): Linear(in_features=1024, out_features=65536, bias=True)
    (relu_01): ReLU()
    (unflatten_01): Unflatten(dim=1, unflattened_size=(256, 16, 16))
    (conv_transpose2d_02): ConvTranspose2d(256, 128, kernel_size=(3, 3), stride=(2, 2), padding=(1, 1), output_padding=(1, 1))
    (relu_02): ReLU()
    (conv_transpose2d_03): ConvTranspose2d(128, 64, kernel_size=(3, 3), stride=(2, 2), padding=(1, 1), output_padding=(1, 1))
    (relu_03): ReLU()
    (conv_transpose2d_04): ConvTranspose2d(64, 3, kernel_size=(3, 3), stride=(2, 2), padding=(1, 1), output_padding=(1, 1))
    (tanh_04): Tanh()
  )
)), 'O': (500, Autoencoder(
  (encoder): Encoder(
    (conv2d_01): Conv2d(3, 64, kernel_size=(3, 3), stride=(2, 2), padding=(1, 1))
    (relu_01): ReLU()
    (conv2d_02): Conv2d(64, 128, kernel_size=(3, 3), stride=(2, 2), padding=(1, 1))
    (relu_02): ReLU()
    (conv2d_03): Conv2d(128, 256, kernel_size=(3, 3), stride=(2, 2), padding=(1, 1))
    (relu_03): ReLU()
    (flatten_04): Flatten(start_dim=1, end_dim=-1)
    (linear_04): Linear(in_features=65536, out_features=1024, bias=True)
    (relu_04): ReLU()
  )
  (decoder): Decoder(
    (linear_01): Linear(in_features=1024, out_features=65536, bias=True)
    (relu_01): ReLU()
    (unflatten_01): Unflatten(dim=1, unflattened_size=(256, 16, 16))
    (conv_transpose2d_02): ConvTranspose2d(256, 128, kernel_size=(3, 3), stride=(2, 2), padding=(1, 1), output_padding=(1, 1))
    (relu_02): ReLU()
    (conv_transpose2d_03): ConvTranspose2d(128, 64, kernel_size=(3, 3), stride=(2, 2), padding=(1, 1), output_padding=(1, 1))
    (relu_03): ReLU()
    (conv_transpose2d_04): ConvTranspose2d(64, 3, kernel_size=(3, 3), stride=(2, 2), padding=(1, 1), output_padding=(1, 1))
    (tanh_04): Tanh()
  )
)), 'Y': (500, Autoencoder(
  (encoder): Encoder(
    (conv2d_01): Conv2d(3, 64, kernel_size=(3, 3), stride=(2, 2), padding=(1, 1))
    (relu_01): ReLU()
    (conv2d_02): Conv2d(64, 128, kernel_size=(3, 3), stride=(2, 2), padding=(1, 1))
    (relu_02): ReLU()
    (conv2d_03): Conv2d(128, 256, kernel_size=(3, 3), stride=(2, 2), padding=(1, 1))
    (relu_03): ReLU()
    (flatten_04): Flatten(start_dim=1, end_dim=-1)
    (linear_04): Linear(in_features=65536, out_features=1024, bias=True)
    (relu_04): ReLU()
  )
  (decoder): Decoder(
    (linear_01): Linear(in_features=1024, out_features=65536, bias=True)
    (relu_01): ReLU()
    (unflatten_01): Unflatten(dim=1, unflattened_size=(256, 16, 16))
    (conv_transpose2d_02): ConvTranspose2d(256, 128, kernel_size=(3, 3), stride=(2, 2), padding=(1, 1), output_padding=(1, 1))
    (relu_02): ReLU()
    (conv_transpose2d_03): ConvTranspose2d(128, 64, kernel_size=(3, 3), stride=(2, 2), padding=(1, 1), output_padding=(1, 1))
    (relu_03): ReLU()
    (conv_transpose2d_04): ConvTranspose2d(64, 3, kernel_size=(3, 3), stride=(2, 2), padding=(1, 1), output_padding=(1, 1))
    (tanh_04): Tanh()
  )
)), 'R': (500, Autoencoder(
  (encoder): Encoder(
    (conv2d_01): Conv2d(3, 64, kernel_size=(3, 3), stride=(2, 2), padding=(1, 1))
    (relu_01): ReLU()
    (conv2d_02): Conv2d(64, 128, kernel_size=(3, 3), stride=(2, 2), padding=(1, 1))
    (relu_02): ReLU()
    (conv2d_03): Conv2d(128, 256, kernel_size=(3, 3), stride=(2, 2), padding=(1, 1))
    (relu_03): ReLU()
    (flatten_04): Flatten(start_dim=1, end_dim=-1)
    (linear_04): Linear(in_features=65536, out_features=1024, bias=True)
    (relu_04): ReLU()
  )
  (decoder): Decoder(
    (linear_01): Linear(in_features=1024, out_features=65536, bias=True)
    (relu_01): ReLU()
    (unflatten_01): Unflatten(dim=1, unflattened_size=(256, 16, 16))
    (conv_transpose2d_02): ConvTranspose2d(256, 128, kernel_size=(3, 3), stride=(2, 2), padding=(1, 1), output_padding=(1, 1))
    (relu_02): ReLU()
    (conv_transpose2d_03): ConvTranspose2d(128, 64, kernel_size=(3, 3), stride=(2, 2), padding=(1, 1), output_padding=(1, 1))
    (relu_03): ReLU()
    (conv_transpose2d_04): ConvTranspose2d(64, 3, kernel_size=(3, 3), stride=(2, 2), padding=(1, 1), output_padding=(1, 1))
    (tanh_04): Tanh()
  )
)), 'T': (500, Autoencoder(
  (encoder): Encoder(
    (conv2d_01): Conv2d(3, 64, kernel_size=(3, 3), stride=(2, 2), padding=(1, 1))
    (relu_01): ReLU()
    (conv2d_02): Conv2d(64, 128, kernel_size=(3, 3), stride=(2, 2), padding=(1, 1))
    (relu_02): ReLU()
    (conv2d_03): Conv2d(128, 256, kernel_size=(3, 3), stride=(2, 2), padding=(1, 1))
    (relu_03): ReLU()
    (flatten_04): Flatten(start_dim=1, end_dim=-1)
    (linear_04): Linear(in_features=65536, out_features=1024, bias=True)
    (relu_04): ReLU()
  )
  (decoder): Decoder(
    (linear_01): Linear(in_features=1024, out_features=65536, bias=True)
    (relu_01): ReLU()
    (unflatten_01): Unflatten(dim=1, unflattened_size=(256, 16, 16))
    (conv_transpose2d_02): ConvTranspose2d(256, 128, kernel_size=(3, 3), stride=(2, 2), padding=(1, 1), output_padding=(1, 1))
    (relu_02): ReLU()
    (conv_transpose2d_03): ConvTranspose2d(128, 64, kernel_size=(3, 3), stride=(2, 2), padding=(1, 1), output_padding=(1, 1))
    (relu_03): ReLU()
    (conv_transpose2d_04): ConvTranspose2d(64, 3, kernel_size=(3, 3), stride=(2, 2), padding=(1, 1), output_padding=(1, 1))
    (tanh_04): Tanh()
  )
)), 'V': (500, Autoencoder(
  (encoder): Encoder(
    (conv2d_01): Conv2d(3, 64, kernel_size=(3, 3), stride=(2, 2), padding=(1, 1))
    (relu_01): ReLU()
    (conv2d_02): Conv2d(64, 128, kernel_size=(3, 3), stride=(2, 2), padding=(1, 1))
    (relu_02): ReLU()
    (conv2d_03): Conv2d(128, 256, kernel_size=(3, 3), stride=(2, 2), padding=(1, 1))
    (relu_03): ReLU()
    (flatten_04): Flatten(start_dim=1, end_dim=-1)
    (linear_04): Linear(in_features=65536, out_features=1024, bias=True)
    (relu_04): ReLU()
  )
  (decoder): Decoder(
    (linear_01): Linear(in_features=1024, out_features=65536, bias=True)
    (relu_01): ReLU()
    (unflatten_01): Unflatten(dim=1, unflattened_size=(256, 16, 16))
    (conv_transpose2d_02): ConvTranspose2d(256, 128, kernel_size=(3, 3), stride=(2, 2), padding=(1, 1), output_padding=(1, 1))
    (relu_02): ReLU()
    (conv_transpose2d_03): ConvTranspose2d(128, 64, kernel_size=(3, 3), stride=(2, 2), padding=(1, 1), output_padding=(1, 1))
    (relu_03): ReLU()
    (conv_transpose2d_04): ConvTranspose2d(64, 3, kernel_size=(3, 3), stride=(2, 2), padding=(1, 1), output_padding=(1, 1))
    (tanh_04): Tanh()
  )
)), 'U': (500, Autoencoder(
  (encoder): Encoder(
    (conv2d_01): Conv2d(3, 64, kernel_size=(3, 3), stride=(2, 2), padding=(1, 1))
    (relu_01): ReLU()
    (conv2d_02): Conv2d(64, 128, kernel_size=(3, 3), stride=(2, 2), padding=(1, 1))
    (relu_02): ReLU()
    (conv2d_03): Conv2d(128, 256, kernel_size=(3, 3), stride=(2, 2), padding=(1, 1))
    (relu_03): ReLU()
    (flatten_04): Flatten(start_dim=1, end_dim=-1)
    (linear_04): Linear(in_features=65536, out_features=1024, bias=True)
    (relu_04): ReLU()
  )
  (decoder): Decoder(
    (linear_01): Linear(in_features=1024, out_features=65536, bias=True)
    (relu_01): ReLU()
    (unflatten_01): Unflatten(dim=1, unflattened_size=(256, 16, 16))
    (conv_transpose2d_02): ConvTranspose2d(256, 128, kernel_size=(3, 3), stride=(2, 2), padding=(1, 1), output_padding=(1, 1))
    (relu_02): ReLU()
    (conv_transpose2d_03): ConvTranspose2d(128, 64, kernel_size=(3, 3), stride=(2, 2), padding=(1, 1), output_padding=(1, 1))
    (relu_03): ReLU()
    (conv_transpose2d_04): ConvTranspose2d(64, 3, kernel_size=(3, 3), stride=(2, 2), padding=(1, 1), output_padding=(1, 1))
    (tanh_04): Tanh()
  )
)), 'S': (500, Autoencoder(
  (encoder): Encoder(
    (conv2d_01): Conv2d(3, 64, kernel_size=(3, 3), stride=(2, 2), padding=(1, 1))
    (relu_01): ReLU()
    (conv2d_02): Conv2d(64, 128, kernel_size=(3, 3), stride=(2, 2), padding=(1, 1))
    (relu_02): ReLU()
    (conv2d_03): Conv2d(128, 256, kernel_size=(3, 3), stride=(2, 2), padding=(1, 1))
    (relu_03): ReLU()
    (flatten_04): Flatten(start_dim=1, end_dim=-1)
    (linear_04): Linear(in_features=65536, out_features=1024, bias=True)
    (relu_04): ReLU()
  )
  (decoder): Decoder(
    (linear_01): Linear(in_features=1024, out_features=65536, bias=True)
    (relu_01): ReLU()
    (unflatten_01): Unflatten(dim=1, unflattened_size=(256, 16, 16))
    (conv_transpose2d_02): ConvTranspose2d(256, 128, kernel_size=(3, 3), stride=(2, 2), padding=(1, 1), output_padding=(1, 1))
    (relu_02): ReLU()
    (conv_transpose2d_03): ConvTranspose2d(128, 64, kernel_size=(3, 3), stride=(2, 2), padding=(1, 1), output_padding=(1, 1))
    (relu_03): ReLU()
    (conv_transpose2d_04): ConvTranspose2d(64, 3, kernel_size=(3, 3), stride=(2, 2), padding=(1, 1), output_padding=(1, 1))
    (tanh_04): Tanh()
  )
)), 'K': (500, Autoencoder(
  (encoder): Encoder(
    (conv2d_01): Conv2d(3, 64, kernel_size=(3, 3), stride=(2, 2), padding=(1, 1))
    (relu_01): ReLU()
    (conv2d_02): Conv2d(64, 128, kernel_size=(3, 3), stride=(2, 2), padding=(1, 1))
    (relu_02): ReLU()
    (conv2d_03): Conv2d(128, 256, kernel_size=(3, 3), stride=(2, 2), padding=(1, 1))
    (relu_03): ReLU()
    (flatten_04): Flatten(start_dim=1, end_dim=-1)
    (linear_04): Linear(in_features=65536, out_features=1024, bias=True)
    (relu_04): ReLU()
  )
  (decoder): Decoder(
    (linear_01): Linear(in_features=1024, out_features=65536, bias=True)
    (relu_01): ReLU()
    (unflatten_01): Unflatten(dim=1, unflattened_size=(256, 16, 16))
    (conv_transpose2d_02): ConvTranspose2d(256, 128, kernel_size=(3, 3), stride=(2, 2), padding=(1, 1), output_padding=(1, 1))
    (relu_02): ReLU()
    (conv_transpose2d_03): ConvTranspose2d(128, 64, kernel_size=(3, 3), stride=(2, 2), padding=(1, 1), output_padding=(1, 1))
    (relu_03): ReLU()
    (conv_transpose2d_04): ConvTranspose2d(64, 3, kernel_size=(3, 3), stride=(2, 2), padding=(1, 1), output_padding=(1, 1))
    (tanh_04): Tanh()
  )
)), 'J': (500, Autoencoder(
  (encoder): Encoder(
    (conv2d_01): Conv2d(3, 64, kernel_size=(3, 3), stride=(2, 2), padding=(1, 1))
    (relu_01): ReLU()
    (conv2d_02): Conv2d(64, 128, kernel_size=(3, 3), stride=(2, 2), padding=(1, 1))
    (relu_02): ReLU()
    (conv2d_03): Conv2d(128, 256, kernel_size=(3, 3), stride=(2, 2), padding=(1, 1))
    (relu_03): ReLU()
    (flatten_04): Flatten(start_dim=1, end_dim=-1)
    (linear_04): Linear(in_features=65536, out_features=1024, bias=True)
    (relu_04): ReLU()
  )
  (decoder): Decoder(
    (linear_01): Linear(in_features=1024, out_features=65536, bias=True)
    (relu_01): ReLU()
    (unflatten_01): Unflatten(dim=1, unflattened_size=(256, 16, 16))
    (conv_transpose2d_02): ConvTranspose2d(256, 128, kernel_size=(3, 3), stride=(2, 2), padding=(1, 1), output_padding=(1, 1))
    (relu_02): ReLU()
    (conv_transpose2d_03): ConvTranspose2d(128, 64, kernel_size=(3, 3), stride=(2, 2), padding=(1, 1), output_padding=(1, 1))
    (relu_03): ReLU()
    (conv_transpose2d_04): ConvTranspose2d(64, 3, kernel_size=(3, 3), stride=(2, 2), padding=(1, 1), output_padding=(1, 1))
    (tanh_04): Tanh()
  )
)), 'Q': (500, Autoencoder(
  (encoder): Encoder(
    (conv2d_01): Conv2d(3, 64, kernel_size=(3, 3), stride=(2, 2), padding=(1, 1))
    (relu_01): ReLU()
    (conv2d_02): Conv2d(64, 128, kernel_size=(3, 3), stride=(2, 2), padding=(1, 1))
    (relu_02): ReLU()
    (conv2d_03): Conv2d(128, 256, kernel_size=(3, 3), stride=(2, 2), padding=(1, 1))
    (relu_03): ReLU()
    (flatten_04): Flatten(start_dim=1, end_dim=-1)
    (linear_04): Linear(in_features=65536, out_features=1024, bias=True)
    (relu_04): ReLU()
  )
  (decoder): Decoder(
    (linear_01): Linear(in_features=1024, out_features=65536, bias=True)
    (relu_01): ReLU()
    (unflatten_01): Unflatten(dim=1, unflattened_size=(256, 16, 16))
    (conv_transpose2d_02): ConvTranspose2d(256, 128, kernel_size=(3, 3), stride=(2, 2), padding=(1, 1), output_padding=(1, 1))
    (relu_02): ReLU()
    (conv_transpose2d_03): ConvTranspose2d(128, 64, kernel_size=(3, 3), stride=(2, 2), padding=(1, 1), output_padding=(1, 1))
    (relu_03): ReLU()
    (conv_transpose2d_04): ConvTranspose2d(64, 3, kernel_size=(3, 3), stride=(2, 2), padding=(1, 1), output_padding=(1, 1))
    (tanh_04): Tanh()
  )
)), 'H': (499, Autoencoder(
  (encoder): Encoder(
    (conv2d_01): Conv2d(3, 64, kernel_size=(3, 3), stride=(2, 2), padding=(1, 1))
    (relu_01): ReLU()
    (conv2d_02): Conv2d(64, 128, kernel_size=(3, 3), stride=(2, 2), padding=(1, 1))
    (relu_02): ReLU()
    (conv2d_03): Conv2d(128, 256, kernel_size=(3, 3), stride=(2, 2), padding=(1, 1))
    (relu_03): ReLU()
    (flatten_04): Flatten(start_dim=1, end_dim=-1)
    (linear_04): Linear(in_features=65536, out_features=1024, bias=True)
    (relu_04): ReLU()
  )
  (decoder): Decoder(
    (linear_01): Linear(in_features=1024, out_features=65536, bias=True)
    (relu_01): ReLU()
    (unflatten_01): Unflatten(dim=1, unflattened_size=(256, 16, 16))
    (conv_transpose2d_02): ConvTranspose2d(256, 128, kernel_size=(3, 3), stride=(2, 2), padding=(1, 1), output_padding=(1, 1))
    (relu_02): ReLU()
    (conv_transpose2d_03): ConvTranspose2d(128, 64, kernel_size=(3, 3), stride=(2, 2), padding=(1, 1), output_padding=(1, 1))
    (relu_03): ReLU()
    (conv_transpose2d_04): ConvTranspose2d(64, 3, kernel_size=(3, 3), stride=(2, 2), padding=(1, 1), output_padding=(1, 1))
    (tanh_04): Tanh()
  )
)), 'F': (500, Autoencoder(
  (encoder): Encoder(
    (conv2d_01): Conv2d(3, 64, kernel_size=(3, 3), stride=(2, 2), padding=(1, 1))
    (relu_01): ReLU()
    (conv2d_02): Conv2d(64, 128, kernel_size=(3, 3), stride=(2, 2), padding=(1, 1))
    (relu_02): ReLU()
    (conv2d_03): Conv2d(128, 256, kernel_size=(3, 3), stride=(2, 2), padding=(1, 1))
    (relu_03): ReLU()
    (flatten_04): Flatten(start_dim=1, end_dim=-1)
    (linear_04): Linear(in_features=65536, out_features=1024, bias=True)
    (relu_04): ReLU()
  )
  (decoder): Decoder(
    (linear_01): Linear(in_features=1024, out_features=65536, bias=True)
    (relu_01): ReLU()
    (unflatten_01): Unflatten(dim=1, unflattened_size=(256, 16, 16))
    (conv_transpose2d_02): ConvTranspose2d(256, 128, kernel_size=(3, 3), stride=(2, 2), padding=(1, 1), output_padding=(1, 1))
    (relu_02): ReLU()
    (conv_transpose2d_03): ConvTranspose2d(128, 64, kernel_size=(3, 3), stride=(2, 2), padding=(1, 1), output_padding=(1, 1))
    (relu_03): ReLU()
    (conv_transpose2d_04): ConvTranspose2d(64, 3, kernel_size=(3, 3), stride=(2, 2), padding=(1, 1), output_padding=(1, 1))
    (tanh_04): Tanh()
  )
))}
======================
